…
 0.07177121 0.86647837 0.31236144 0.1651237  0.         0.42997051
 0.53940258 0.28634061 1.         1.         1.         0.57251712
 0.26352065 0.73810048 0.         0.5265296  0.         0.
 1.         0.         0.71611604 0.33269259 0.         0.45252102
 0.73231815 1.         1.         0.         0.42452623 0.85208034
 1.         0.79003589 0.         1.        ]
_________________________________________________________________
Layer (type)                 Output Shape              Param #   
=================================================================
input_1 (InputLayer)         (None, 28, 28, 1)         0         
_________________________________________________________________
conv2d_1 (Conv2D)            (None, 14, 14, 32)        320       
_________________________________________________________________
conv2d_2 (Conv2D)            (None, 7, 7, 64)          18496     
_________________________________________________________________
flatten_1 (Flatten)          (None, 3136)              0         
_________________________________________________________________
dense_1 (Dense)              (None, 16)                50192     
=================================================================
Total params: 69,008
Trainable params: 69,008
Non-trainable params: 0
_________________________________________________________________
_________________________________________________________________
Layer (type)                 Output Shape              Param #   
=================================================================
input_2 (InputLayer)         (None, 16)                0         
_________________________________________________________________
dense_2 (Dense)              (None, 3136)              53312     
_________________________________________________________________
reshape_1 (Reshape)          (None, 7, 7, 64)          0         
_________________________________________________________________
conv2d_transpose_1 (Conv2DTr (None, 14, 14, 64)        36928     
_________________________________________________________________
conv2d_transpose_2 (Conv2DTr (None, 28, 28, 32)        18464     
_________________________________________________________________
conv2d_transpose_3 (Conv2DTr (None, 28, 28, 1)         289       
=================================================================
Total params: 108,993
Trainable params: 108,993
Non-trainable params: 0
_________________________________________________________________
_________________________________________________________________
Layer (type)                 Output Shape              Param #   
=================================================================
input_1 (InputLayer)         (None, 28, 28, 1)         0         
_________________________________________________________________
model_1 (Model)              (None, 16)                69008     
_________________________________________________________________
model_2 (Model)              (None, 28, 28, 1)         108993    
=================================================================
Total params: 178,001
Trainable params: 178,001
Non-trainable params: 0
_________________________________________________________________
Train on 60000 samples, validate on 10000 samples
Epoch 1/10

  200/60000 [..............................] - ETA: 26:41 - loss: 0.2311
  400/60000 [..............................] - ETA: 13:25 - loss: 0.2304
…
