…
51632400"}},"colab":{"base_uri":"https://localhost:8080/","height":561}},"source":["model = build_autoenocder()\n","model.summary()"],"execution_count":0,"outputs":[{"output_type":"stream","text":["Model: \"model_8\"\n","_________________________________________________________________\n","Layer (type)                 Output Shape              Param #   \n","=================================================================\n","image_input (InputLayer)     [(None, 420, 540, 1)]     0         \n","_________________________________________________________________\n","conv2d_37 (Conv2D)           (None, 420, 540, 32)      320       \n","_________________________________________________________________\n","batch_normalization_v2_16 (B (None, 420, 540, 32)      128       \n","_________________________________________________________________\n","max_pooling2d_13 (MaxPooling (None, 210, 270, 32)      0         \n","_________________________________________________________________\n","conv2d_38 (Conv2D)           (None, 210, 270, 64)      18496     \n","_________________________________________________________________\n","max_pooling2d_14 (MaxPooling (None, 105, 135, 64)      0         \n","_________________________________________________________________\n","conv2d_39 (Conv2D)           (None, 105, 135, 64)      36928     \n","_________________________________________________________________\n","up_sampling2d_13 (UpSampling (None, 210, 270, 64)      0         \n","_________________________________________________________________\n","batch_normalization_v2_17 (B (None, 210, 270, 64)      256       \n","_________________________________________________________________\n","conv2d_40 (Conv2D)           (None, 210, 270, 32)      18464     \n","_________________________________________________________________\n","up_sampling2d_14 (UpSampling (None, 420, 540, 32)      0         \n","_________________________________________________________________\n","conv2d_41 (Conv2D)           (None, 420, 540, 1)       289       \n","=================================================================\n","Total params: 74,881\n","Trainable params: 74,689\n","Non-trainable params: 192\n","_________________________________________________________________\n"],"name":"stdout"}]},{"cell_type":"code","metadata":{"id":"GdlTlboh5eKJ","colab_type":"code","colab":{}},"source":["nesterov = optimizers.SGD(lr=0.01, decay=1e-6, mom
…
